data.pth (torch, 6551 bytes, 6 tensors)

l1.weight f4 [8, 83]
0	0x3d36dc19	0.044643495
1	0xbdca59b9	-0.098803945
2	0x3eef0a96	0.46687764
3	0x3f4460ca	0.7671019
4	0xbebf658d	-0.37382165
5	0x3ec38f79	0.38195398
6	0x3f0be6cb	0.5464904
7	0x3f1db5c6	0.6160549
8	0xbdaa633e	-0.0831971
9	0xbe7ddf32	-0.24792174
10	0x3eb12084	0.3459512
11	0xbeca7546	-0.39542598
12	0x3ec431d9	0.3831928
13	0xbe0a08f0	-0.13479972
14	0x3ee3ccce	0.4449219
15	0x3ee30af4	0.44344294
16	0x3e2f3b07	0.17112361
17	0x3d16b74e	0.036795907
18	0x3f6b5dc0	0.91939926
19	0x3f11a1cd	0.56887513
20	0xbe7216f3	-0.23641567
21	0x3d0ab131	0.03386039
22	0xbee0128b	-0.43764147
23	0xbd542f1c	-0.05180274
24	0x3ed5bdba	0.41746312
25	0x3ec52d26	0.38511008
26	0x3f1331e2	0.5749799
27	0x3ecff89e	0.40619367
28	0xbeca77bf	-0.39544484
29	0x3e4a8a9f	0.19779442
30	0x3e753809	0.23947157
31	0xbe05f4aa	-0.13081613
32	0x3eb17567	0.34659883
33	0x3eae62af	0.34059665
34	0x3e9415ca	0.28922874
35	0x3e705aa7	0.23472081
36	0x3f04eef4	0.51927114
37	0x3e58fd1d	0.21190305
38	0x3e0242a9	0.12720741
39	0x3cee338c	0.029077314
40	0x3f3f0bcc	0.74627376
41	0x3f09cbd1	0.53826624
42	0xbe83c044	-0.25732625
43	0x3eb38238	0.35060287
44	0x3e3c4486	0.18385515
45	0x3ed47a3f	0.41499516
46	0x3f50d27e	0.81571186
47	0xbe99571e	-0.29949278
48	0xbe38568b	-0.18001764
49	0x3f2f8e16	0.6857618
50	0x3e8f3564	0.2797042
51	0xbf3fefba	-0.7497517
52	0xbe1eeb2b	-0.15519397
53	0xbf26d816	-0.6517347
54	0x3f17b1c0	0.592556
55	0x3e1ae01d	0.15124555
56	0x3f01ab60	0.5065212
57	0xbf242197	-0.64113754
58	0xbebeee4d	-0.37291184
59	0x3c36a0d5	0.011146744
60	0x3eacd020	0.33752537
61	0x3f17c548	0.592854
62	0x3e4c08ba	0.19925204
63	0x3e322655	0.17397435
64	0x3f05c33f	0.52251047
65	0x3f14bb9d	0.58098775
66	0xbeda5184	-0.42640316
67	0xbe23c0a8	-0.15991461
68	0x3e957190	0.29188204
69	0x3d87ca24	0.06630352
70	0xbe04d3e9	-0.12971462
71	0x3e52107f	0.20514105
72	0x3c045e65	0.008079146
73	0xbb7a76bb	-0.0038217742
74	0xbeca7449	-0.39541844
75	0x3ebe4c1f	0.3716745
76	0xbd9b4d42	-0.07583095
77	0xbed67ff3	-0.41894493
78	0x3e9baed5	0.30406824
79	0xbd89d75e	-0.06730531
80	0x3e200d2e	0.15630028
81	0x3ed181e7	0.4091942
82	0x3e7033a0	0.23457193
83	0xbec457fd	-0.3834838
84	0x3e16a9ab	0.1471316
85	0xbd55e9c7	-0.0522249
86	0xbd17ce78	-0.03706214
87	0xbe45ff07	-0.19335566
88	0x3f01ed5c	0.50752807
89	0xbdcc08e9	-0.09962637
90	0xbe7ea04e	-0.24865839
91	0x3eb03a3f	0.34419438
92	0xbe76bf2b	-0.24096362
93	0x3e68bd15	0.22728379
94	0x3e877d23	0.2646266
95	0x3e262e14	0.16228515
96	0x3f229416	0.6350721
97	0x3ed47a95	0.41499773
98	0x3efceb96	0.49398488
99	0x3e9dcf4f	0.30822226
100	0xbe6ff2f2	-0.2343252
101	0x3f51f9de	0.8202189
102	0x3e69d7c9	0.22836222
103	0xbf0d8c7d	-0.55292493
104	0xbe30f88c	-0.17282313
105	0xbf300a31	-0.6876555
106	0x3e458681	0.1928959
107	0xbe892259	-0.26784018
108	0x3e990c42	0.29892164
109	0xbe34bb6e	-0.17649624
110	0x3dfe33c5	0.12412218
111	0x3e6fcb91	0.23417498
112	0x3d7c92e9	0.061663542
113	0x3f1035db	0.56332177
114	0x3ef5525f	0.47914407
115	0x3f15fef1	0.58592135
116	0x3f2ed4d5	0.68293506
117	0x3f3205c3	0.6954004
118	0x3f2bda96	0.6713041
119	0x3ed30b38	0.41219497
120	0xbef775d1	-0.48332074
121	0x3e8eb9c3	0.278761
122	0x3ee5fcc4	0.44919407
123	0xbecd474e	-0.40093464
124	0xbf182c3b	-0.5944249
125	0x3e14cebe	0.14531991
126	0xbdc6e77c	-0.09712121
127	0x3ef39f56	0.475825
128	0x3e46a405	0.19398506
129	0x3e9bdf6e	0.304439
130	0x3ea102f1	0.31447557
131	0xbf181967	-0.5941376
132	0xbdb85844	-0.0900121
133	0x3f0076dd	0.5018137
134	0xbe21a295	-0.15784676
135	0xbe5cfabb	-0.21580021
136	0xbdf526d5	-0.11970297
137	0xbe0c5229	-0.13703217
138	0x3eb0f67c	0.34563053
139	0xbe07d1b7	-0.13263594
140	0xbea913db	-0.3302296
141	0x3e50b3e7	0.20381127
142	0x3e5041e4	0.20337635
143	0x3ea0f313	0.3143545
144	0xbe34cae6	-0.17655525
145	0x3e92723e	0.28602785
146	0x3ea3ad83	0.31968316
147	0x3e9439a1	0.28950217
148	0xbee78668	-0.4521973
149	0x3f38fa9a	0.7225739
150	0x3ec5ab28	0.38607144
151	0x3ee5b61c	0.448655
152	0x3eb87677	0.36027882
153	0x3e0c5350	0.13703656
154	0x3df4fbfd	0.119621255
155	0x3d0fae45	0.035078306
156	0xbe5f1590	-0.21785569
157	0xbee8d208	-0.4547274
158	0x3ea0de5a	0.3141964
159	0x3e45d93e	0.19321153
160	0xbed242a0	-0.41066456
161	0x3efe31aa	0.49647266
162	0xbdc0ed9a	-0.09420319
163	0x3e25e641	0.16201116
164	0xbdbb64d9	-0.091500945
165	0x3e9730ef	0.2952952
166	0x3f614b71	0.8800574
167	0x3eb448e3	0.35211858
168	0x3ece24c5	0.40262428
169	0xbeed35a5	-0.4632999
170	0x3f243bba	0.64153636
171	0xbe8db707	-0.276787
172	0x3f615e61	0.88034636
173	0xbea299f5	-0.31758085
174	0x3c9d4e9b	0.019202521
175	0x3f47ded0	0.7807436
176	0x3eecb6ce	0.4623322
177	0xbeff66fa	-0.49883252
178	0xbe703d06	-0.23460779
179	0xbeec2042	-0.4611836
180	0x3ecf487d	0.40484992
181	0xbec4b312	-0.3841787
182	0x3d8927b7	0.06697028
183	0x3ead3419	0.3382881
184	0xbf292e0a	-0.66085875
185	0x3f0d4a0f	0.5519113
186	0xbf5f69c4	-0.8727076
187	0x3f53a24c	0.8266952
188	0xbf55979b	-0.83434457
189	0xbe00acea	-0.12565961
190	0x3f16d9b1	0.5892592
191	0x3e313f24	0.17309242
192	0xbe36f418	-0.17866552
193	0x3f18b641	0.596531
194	0xbf191c06	-0.59808385
195	0x3f0c0e33	0.54709166
196	0xbe680090	-0.22656465
197	0xbf0e6d41	-0.5563546
198	0xbe6a3b41	-0.22874166
199	0xbd7f41a3	-0.062318455
200	0xbdb84766	-0.08997993
201	0xbe312340	-0.17298603
202	0x3eaa304a	0.33239967
203	0x3f689224	0.9084799
204	0xbd96e23c	-0.073673695
205	0x3b4f8a61	0.0031668174
206	0x3f17df14	0.59324765
207	0x3ec98be8	0.39364552
208	0xbf07ac44	-0.5299723
209	0xbef04fb9	-0.46935824
210	0xbe6c67b6	-0.23086438
211	0x3f0d9a3a	0.55313456
212	0x3f66b4a6	0.901194
213	0xbeaa593f	-0.33271214
214	0x3a387477	0.00070363976
215	0x3ec2ab2c	0.3802122
216	0x3e4862dc	0.19568962
217	0x3f0244af	0.5088605
218	0xbd09fab0	-0.03368634
219	0x3f24219a	0.6411377
220	0xbea87c21	-0.32907203
221	0x3bcdf280	0.006285012
222	0xbea6adb3	-0.32554397
223	0x3f1a7762	0.60338414
224	0xbec2f45f	-0.38077065
225	0xbe7d1216	-0.2471393
226	0x3e832a5f	0.25618264
227	0x3e763e1f	0.24047135
228	0xbc8c1a20	-0.017102301
229	0xbe2dd21d	-0.16974683
230	0x3f1fbba0	0.6239567
231	0x3f3f62fb	0.7476041
232	0xbf3bd448	-0.7337079
233	0xbee9c284	-0.45656216
234	0x3efb744f	0.49112174
235	0xbcff6c5e	-0.031179603
236	0xbbc6fd75	-0.006072695
237	0x3edae912	0.42755944
238	0x3f16d35a	0.58916247
239	0x3d58e688	0.052954227
240	0x3f50a85d	0.815069
241	0x3f01e0ca	0.50733626
242	0xbe712e1f	-0.2355275
243	0x3e5cfa84	0.21579939
244	0x3e2cbd72	0.16869143
245	0xbc01f7a8	-0.007932581
246	0xbd8f4555	-0.06995646
247	0xbea38421	-0.31936744
248	0x3e7fd79b	0.2498459
249	0x3f89402f	1.0722712
250	0x3e754454	0.23951846
251	0xbeb71d3d	-0.35764495
252	0xbf0b6408	-0.5444951
253	0xbf456fad	-0.7712353
254	0xbf047aca	-0.5174986
255	0x3edaf642	0.42766005

l1.bias f4 [8]
0	0x3eca6ec4	0.39537632
1	0x3f7c8e50	0.9865465
2	0x3f2930a0	0.6608982
3	0x3f8e89d4	1.1135812
4	0x3f47029a	0.77738345
5	0x3f31e6c6	0.6949276
6	0x3f31c8b5	0.6944688
7	0x3f0a40ef	0.5400533

l2.weight f4 [8, 8]
0	0x3ed93e84	0.42430508
1	0x3fcc9617	1.5983304
2	0xbfa2df72	-1.272444
3	0x3e7b8c29	0.24565186
4	0x3f74f77e	0.95690143
5	0x3ebf7c75	0.3739964
6	0xbf979da8	-1.1844988
7	0x3f49627a	0.7866589
8	0x3d91b2c4	0.07114175
9	0xbf4be35f	-0.79643816
10	0xbf656591	-0.89608103
11	0xbe4e9e88	-0.20177662
12	0x3e822e2e	0.25425857
13	0x3ec7c3d6	0.39016598
14	0x3f6a1c5d	0.9144953
15	0x3e854fb3	0.26037368
16	0x3f8d1ea2	1.1024973
17	0xbf763436	-0.9617342
18	0x3fa1d110	1.2641926
19	0x3ee4e2ac	0.44704187
20	0xbe8c39ef	-0.2738795
21	0x3f449da7	0.7680306
22	0x3f2ff116	0.6872724
23	0x3f0f1336	0.5588869
24	0xbf21ff44	-0.6328013
25	0x3f0e1b0b	0.55510014
26	0x3fd0cad4	1.6311898
27	0x3fcf5983	1.6199192
28	0xbfbf5d60	-1.4950371
29	0x3f48a98a	0.78383696
30	0x3d6ba522	0.05753053
31	0x3eb69998	0.35664058
32	0xbe890c3a	-0.2676714
33	0xbdc406df	-0.09571623
34	0x3e86bee3	0.2631751
35	0xbe779f7d	-0.24181934
36	0x3faf3b17	1.3689908
37	0xbfb7daf4	-1.4363694
38	0x3fa5ee19	1.2963287
39	0x3eba79ea	0.36421138
40	0x3f9c0ae4	1.2190824
41	0x3f9a27f8	1.2043447
42	0x3ecd2b24	0.40071976
43	0xbfabd9dd	-1.3425862
44	0x3fa9d53a	1.3268197
45	0x3f9b8280	1.21492
46	0x3e8ca07f	0.274662
47	0x3f60e516	0.8784956
48	0x3f7a26fe	0.9771575
49	0x3fb36ed0	1.4018192
50	0xbf1bc2a8	-0.60843897
51	0x3e234acd	0.15946503
52	0x3ee9a9ab	0.4563726
53	0x3fc257b6	1.5183017
54	0xbf880b4f	-1.0628451
55	0x3f6bb719	0.9207626
56	0xbfd58577	-1.6681355
57	0x3f299a3e	0.6625098
58	0x3e23e9eb	0.16007201
59	0x3ee0be9e	0.4389543
60	0x3f8f4cb7	1.1195287
61	0xbe46726a	-0.19379583
62	0x3fbf3d13	1.4940513
63	0xbfbcab8e	-1.4739854

l2.bias f4 [8]
0	0x3f229b5e	0.6351832
1	0x3dadf985	0.08494858
2	0xbeb3de16	-0.35130376
3	0x3f50bfc9	0.8154264
4	0x3ebca568	0.36844945
5	0xbe3c44c6	-0.1838561
6	0x3f438aa1	0.76383406
7	0x3f89d7b0	1.0768948

l3.weight f4 [13, 8]
0	0x3d86187e	0.0654764
1	0x3ee2b3b1	0.4427772
2	0x3e7810b1	0.24225117
3	0xbfcac1ec	-1.584043
4	0xbfbc4b08	-1.4710398
5	0x3e465039	0.1936654
6	0x3ed8f3cb	0.423735
7	0xbf8445d0	-1.0333805
8	0xbf984ce0	-1.189846
9	0xbf899ae9	-1.07504
10	0x3e033bc2	0.12815765
11	0x3d055d33	0.032559585
12	0xbff52175	-1.9150835
13	0x3f05b611	0.52230936
14	0xbd08eadc	-0.033427104
15	0xbf9ddd27	-1.2333115
16	0x3f4fe265	0.81204826
17	0xbfa69905	-1.3015448
18	0xbfc02d02	-1.5013735
19	0xbfefd258	-1.8736067
20	0xbee2bddf	-0.44285485
21	0x3edb1472	0.42789036
22	0x3f3c9233	0.7366058
23	0xbfa231c3	-1.2671436
24	0xbfb371c0	-1.4019089
25	0xbfb811a8	-1.4380388
26	0xbeba9e9b	-0.3644913
27	0x3e7fc7be	0.2497854
28	0x3f0859e8	0.53262186
29	0xbfe2e0de	-1.7724874
30	0xbfa7f13a	-1.3120492
31	0x3f44c82d	0.76867944
32	0xbf48c605	-0.78427154
33	0x3f8cb2f8	1.0992117
34	0xbf69c812	-0.9132091
35	0xbf8d9f9c	-1.1064334
36	0x3f4a6f48	0.7907605
37	0xbf3c3de3	-0.7353193
38	0xbf6e7cb7	-0.9315905
39	0x3f33c635	0.70224315
40	0xbfc9c742	-1.5763934
41	0xbf27773b	-0.65416306
42	0x3e9fc90c	0.31208074
43	0x3f2b71f5	0.6697076
44	0xbf8f7b12	-1.1209433
45	0xbfa87c91	-1.3163015
46	0x3e50a4a3	0.20375304
47	0xbfc752c6	-1.5572135
48	0xbfc5899b	-1.5432619
49	0xbfbb8e17	-1.4652737
50	0xbe1ce034	-0.15319902
51	0xbf0e4172	-0.5556861
52	0x3d9d7426	0.07688169
53	0x3e5cd8a3	0.21567015
54	0xbe15f38d	-0.14643688
55	0x3ee597cc	0.44842374
56	0xbf9e73eb	-1.2379125
57	0xbf3fb871	-0.7489081
58	0x3de5a73d	0.11213539
59	0x3f48c2d6	0.78422296
60	0xc0004f40	-2.004837
61	0xbfb77a56	-1.4334209
62	0xbfdb58d0	-1.7136478
63	0x3ea90055	0.33008066
64	0x3cef07e5	0.02917857
65	0xbfc64333	-1.5489258
66	0xbea1f235	-0.31630102
67	0xbfdce1c5	-1.7256399
68	0x3f20347f	0.625801
69	0x3ee2ea55	0.44319406
70	0xbe61938d	-0.22028942
71	0xbf13fc85	-0.5780719
72	0xbf83036e	-1.0235422
73	0x3d09a2b4	0.03360243
74	0x3f3c9329	0.7366205
75	0xbf9b0dc5	-1.2113577
76	0xbe2c41eb	-0.1682202
77	0x3e792604	0.24330908
78	0xbe470801	-0.19436647
79	0xbfa709c5	-1.3049856
80	0x3ed71e7f	0.42015454
81	0xbfbcd90d	-1.4753739
82	0xbfeb577b	-1.8386072
83	0x3ec7ad14	0.38999236
84	0xbf8d9db5	-1.1063753
85	0xbfd4cf60	-1.6625786
86	0x3e3f310a	0.1867105
87	0x3f5bb3b2	0.8582107
88	0x3eefc9b6	0.4683358
89	0xbf2e80c1	-0.6816521
90	0xbf7fcaf4	-0.99919057
91	0x3e36998e	0.17832014
92	0xbf8e5cb9	-1.1122047
93	0xbeb849a3	-0.3599368
94	0x3f54f4ae	0.8318585
95	0xbfc11aeb	-1.508634
96	0x3e90c80c	0.28277624
97	0x3d403713	0.046927523
98	0xbfc63aa4	-1.5486646
99	0xbfe21838	-1.7663641
100	0xbe13f853	-0.14450197
101	0x3e88eba7	0.26742288
102	0x3e8a99b5	0.27070394
103	0x3f12f482	0.5740434

l3.bias f4 [13]
0	0xbd57e921	-0.052712563
1	0xbdd4c2b9	-0.10388703
2	0xbe4c1d22	-0.19932988
3	0x3d8d7f96	0.06909101
4	0x3e511cad	0.20421095
5	0x3e0790c8	0.13238823
6	0x3e5839c6	0.21115789
7	0xbd2b9996	-0.041894518
8	0xbeb78322	-0.35842234
9	0xbe520898	-0.20511091
10	0x3e16d780	0.14730644
11	0x3e816b00	0.25276947
12	0xbe0ebd9a	-0.13939515
